model/deployed_classifier_weights.pt (torch, 87706 bytes, 2 tensors)

weight f4 [28, 768]
00000000: c589 ebbb 22f3 57bc ef02 34bc c52f e3bc
00000010: 2ddb 0ebd 136c 1b3c 9370 99bb bd6b 9ebb
00000020: c79b 753c b0e6 adb9 56f5 86bc 39c4 b63c
00000030: e4d3 21bc 687c b7bc 2ef9 e2bb 97e4 4eb7
00000040: d3cc 403c 3318 22bd 5cde bdbc 6f6f 00bd
00000050: 1702 573b dcba 07bd 1748 16bb c243 bfbc
00000060: a5bf 19bb bcc7 a9bb 74eb 50ba e4e8 d0bc
00000070: 41e8 e5bc 83a6 f93b a836 f9bc ad4c a8bc
00000080: 6620 f0b8 c2e3 4a3c fb8b 6b3b bfb4 983b
00000090: b937 22bb ebac 38bb ab13 a8bc dca2 c5bc
000000a0: 4ca3 123c bdba 42bb 4748 01bb 7af5 aebb
000000b0: 4eef 833c 3f49 913c bd95 383c 60bc 9bba
000000c0: b9d4 973b 05d2 6f3c 199b bd3c e0a7 de3b
000000d0: 8c77 333c b34e debb 2c88 393c bd0d 033d
000000e0: f8e3 42bb 86f7 ea3c 8665 673a 0eef 203b
000000f0: 0101 a93a 8306 94ba 8bc4 aa3c 94aa 723c
00000100: c892 a43c 0576 e2ba 4ed6 8f3c c250 063d
00000110: d7db 093c 20f7 323c bf36 633c 953b 4fbc
00000120: 27d3 693c 307d a8bb 76fa 07bc b8c0 02bc
00000130: dc8f 2e3c e464 023d 4414 9ebb 6b0a 6a3c
00000140: 6bc2 1e3c 31e2 7ebc 13ce 73bc 5b82 493d
00000150: d7e1 87bc 299e c33c 7ebf 503c aeec 2a3d
00000160: 2342 c4bc ade5 38bc 8404 ff3b 8cae 9f3c
00000170: 53f0 5d3c 3d37 19bc 5826 0abd aa40 593d
00000180: 189f 4b3c d5c3 9ebc 03d0 9c3c 559e d9bc
00000190: 7be7 b7bb 9b26 3fbc c529 9a3c 527a 8b3c
000001a0: 6316 20ba e93f cdbc 3c1f 333d 9594 87bb
000001b0: 7d34 4b3c 3ced d7bc 4010 e53c 71a6 cc3c
000001c0: 8690 debb 6e20 0bbc 8287 2c3c 7537 3b3c
000001d0: 5fcf 093d b1ec 99bc 8014 b83b defb db3b
000001e0: ce12 72bb a39c da3c 7c74 653c 3f97 1a3c
000001f0: 8049 463d 78a1 783c 8b9d 0abb b390 c5bb
00000200: 30ff c8bc 59e7 1b3c 2b1f ac3c cd4e 4cbc
00000210: b6d7 b63c 2ef7 163c 5435 86bc f8a3 03bd
00000220: 9d7e b1bb 82e7 7e39 6df1 333c 134a 383d
00000230: b544 84bc dbb5 0d3b 65f4 73bc 46d7 9e3a
00000240: 9fa1 203c dd7e edbc 1bef a1bc c0dd a2bc
00000250: 58e3 fbbc 5b0d 7e3c c4de 5cbc 9092 af3b
00000260: 6820 d7bc 1a6c 86bc 7882 023c 381e 4bbc
00000270: d978 24bb b974 e2bb 5b1d 78bb 449b 1b3c
00000280: 2350 953b 60a4 d33c c129 38bc 8151 85bc
00000290: 16db 4dbb bbb4 ef3c 6ef1 953b 78d4 543b
000002a0: d895 3ebb 13e4 f5bc 04da 1abc 6036 733c
000002b0: a0aa e53b 9ec6 fe3c e994 b9bc b15e debb
000002c0: 1e35 aabb 5a7d 15bd c3c1 2ebc 8d1f 94bc
000002d0: 3bcb 163c f0b7 a83c 1179 7bbc c1e0 8abc
000002e0: b5c2 e839 747c 9cbc 7c1f 2c3b 9bb4 1cbc
000002f0: c474 e63c e654 5fbb 15e9 983a 6132 d3bc
00000300: e3a8 8e3c 473f e6bc 751f d53b 4584 123c
00000310: 7e58 f53b 65c0 143d 05d4 92bc 44a5 073d
00000320: ebb3 6c3c e7e4 b6bb 5cbe c33b 82e9 c5bc
00000330: 844f a73c 85d9 e0bb e339 87bc 59aa 13bd
00000340: 9719 eb3a 9c12 dfbb a0a8 c2ba fc05 1fbd
00000350: 547b 88bc 7efa 4abd b827 1cbd 0d9e d0bc
00000360: b0cf bdbc 389a 48bc 751a 8c3c 7dad 6f3c
00000370: eb2c 203d 0f33 2fbd e962 a3bb 08d6 3a3c
00000380: abe6 e23b 8b55 1dbd b6a3 9dbb aab6 0b3c
00000390: 5b15 8dbb de20 943c 3612 93bc 484b 923c
000003a0: b423 323c 5892 283c bc3d 043c 3dc8 973b
000003b0: 764f 94bc dcd1 663c 7f7e 7f3c a07b 91ba
000003c0: 3320 dcbc c87f a83c 6387 e53b ef08 44bc
000003d0: 8dc2 fd3c 5fe0 c83b 8c59 d43b 27a4 31bc
000003e0: 84ad c43c a315 1fbc bd22 063c f1ae df3b
000003f0: feed 3b3c f02f 07bc 89d5 d4bb 9002 b9bc
-0.0071880543 -0.013180526 -0.010987028 -0.02773274 -0.03487699 0.009486216 -0.0046826093 -0.0048346207
0.0149907535 -0.00033169007 -0.016474407 0.022310363 -0.009877179 -0.022398189 -0.006926677 -1.23317795e-05
0.011767584 -0.03957386 -0.023177318 -0.03135627 0.0032807642 -0.033137187 -0.0022931152 -0.02334774
-0.0023460176 -0.005181281 -0.00079696556 -0.025501676 -0.028064849 0.0076187267 -0.03042157 -0.020544374
-0.000114501265 0.012383403 0.003594159 0.0046602185 -0.0024752452 -0.002817924 -0.02051719 -0.024125509
0.008950066 -0.0029713355 -0.0019726919 -0.0053393217 0.01610532 0.017735122 0.011266169 -0.0011881702
0.004633513 0.014637475 0.023145245 0.0067949146 0.010953795 -0.006784284 0.01132397 0.031995524
-0.002973793 0.028682481 0.0008827079 0.002455655 0.0012893976 -0.0011293445 0.020845672 0.014811177
0.020089522 -0.0017277604 0.017558243 0.03279186 0.00841423 0.010923177 0.013868033 -0.012648483
0.014271534 -0.0051418766 -0.008299461 -0.007980518 0.010654416 0.031834498 -0.004824193 0.01428471
0.009689908 -0.015556858 -0.014880675 0.049196582 -0.016587181 0.023879128 0.012740968 0.04172962
-0.023957318 -0.011285228 0.0077825207 0.01949241 0.013546067 -0.009351549 -0.033727974 0.053040184
0.012428068 -0.01938049 0.019142156 -0.026564756 -0.0056123114 -0.011666919 0.018818745 0.0170261
-0.00061068515 -0.025054889 0.04373096 -0.0041375854 0.012402651 -0.02635824 0.02796185 0.02498171
-0.006792131 -0.008491619 0.010530354 0.011426796 0.03364503 -0.018789621 0.005617678 0.0067133745
-0.0036937478 0.026686018 0.014004823 0.009435474 0.04840994 0.015175216 -0.0021151032 -0.0060292124
-0.024535745 0.009515607 0.021010956 -0.012469959 0.022319656 0.009214206 -0.01638285 -0.032138795
-0.005416705 0.00024309571 0.010982853 0.044992518 -0.016146043 0.0021623287 -0.014889811 0.00121186
0.0098041585 -0.028991157 -0.019767335 -0.01988113 -0.030748054 0.015506114 -0.013480846 0.005358048
-0.02626057 -0.016408969 0.0079656765 -0.012397341 -0.0025096445 -0.006910887 -0.0037859294 0.009497467
0.004556672 0.025835216 -0.011240424 -0.016274216 -0.0031411103 0.029260984 0.0045759 0.0032475274
-0.0029081013 -0.03001598 -0.009451393 0.014844507 0.0070088655 0.031100567 -0.022654014 -0.0067861904
-0.0051943203 -0.036496498 -0.010666314 -0.01808145 0.009203727 0.02059552 -0.015348689 -0.016952874
0.00044395556 -0.019102313 0.0026263883 -0.009564544 0.02813185 -0.0034077703 0.0011666144 -0.025780858
0.017414516 -0.028106345 0.006503994 0.008942668 0.0074873557 0.036316294 -0.017923364 0.033116594
0.014447193 -0.0055814865 0.0059736203 -0.024159197 0.020423658 -0.006861868 -0.016507095 -0.036051128
0.0017936704 -0.0068076383 -0.001485128 -0.038824067 -0.01666037 -0.049555294 -0.038123816 -0.02546599
-0.023170322 -0.0122438 0.01710246 0.014628765 0.039105337 -0.042773303 -0.0049861562 0.011403568
0.0069244704 -0.03841166 -0.0048107756 0.008527437 -0.0043055243 0.018082079 -0.01795302 0.017858163
0.01087277 0.010288797 0.008071359 0.0046320246 -0.018104296 0.01408812 0.015594124 -0.0011099465
-0.026870823 0.020568743 0.0070046647 -0.011965021 0.030976558 0.0061302627 0.0064804014 -0.01084236
0.02400852 -0.009709748 0.008186993 0.0068262746 0.011470316 -0.008251175 -0.006495182 -0.02258423

bias f4 [28]
00000000: 1fc8 313a b58b 0c39 70ae fcb7 e9a3 fe38
00000010: 4440 4a3a 250e 4c37 6413 7738 ddbb cb39
00000020: 5147 31ba 6121 98b9 19cd f339 ecd1 54ba
00000030: cae8 84ba 2726 42ba 9a64 e2b9 0c77 9639
00000040: f73d c4ba 7590 6cb8 10dc 093a e736 b8ba
00000050: fc58 cdb8 65f9 d4ba 9ed8 28ba 6499 cdba
00000060: 67b8 4eba 54a4 9db9 b037 42b9 cea3 373a
0.00067818345 0.00013403485 -3.012197e-05 0.000121421945 0.0007715265 1.2162641e-05 5.8907448e-05 0.00038859146
-0.0006762641 -0.00029016568 0.0004650138 -0.0008118439 -0.0010140177 -0.0007406198 -0.00043181033 0.00028698926
-0.001497208 -5.640132e-05 0.0005258927 -0.0014054448 -9.7917364e-05 -0.0016248642 -0.000644097 -0.0015685973
-0.00078857545 -0.00030067808 -0.00018522027 0.0007005305
